Model = VisionTransformerEncoder(
  (patch_to_embedding): Linear(in_features=49, out_features=64, bias=True)
  (dropout): Dropout(p=0.1, inplace=False)
  (transformer): Transformer(
    (layers): ModuleList(
      (0): ModuleList(
        (0): Residual(
          (fn): PreNorm(
            (norm): LayerNorm((64,), eps=1e-05, elementwise_affine=True)
            (fn): Attention(
              (to_qkv): Linear(in_features=64, out_features=192, bias=False)
              (to_out): Sequential(
                (0): Linear(in_features=64, out_features=64, bias=True)
                (1): Dropout(p=0.1, inplace=False)
              )
            )
          )
        )
        (1): Residual(
          (fn): PreNorm(
            (norm): LayerNorm((201,), eps=1e-05, elementwise_affine=True)
            (fn): Attention(
              (to_qkv): Linear(in_features=201, out_features=192, bias=False)
              (to_out): Sequential(
                (0): Linear(in_features=64, out_features=201, bias=True)
                (1): Dropout(p=0.1, inplace=False)
              )
            )
          )
        )
        (2): Residual(
          (fn): PreNorm(
            (norm): LayerNorm((64,), eps=1e-05, elementwise_affine=True)
            (fn): FeedForward(
              (net): Sequential(
                (0): Linear(in_features=64, out_features=8, bias=True)
                (1): GELU(approximate=none)
                (2): Dropout(p=0.1, inplace=False)
                (3): Linear(in_features=8, out_features=64, bias=True)
                (4): Dropout(p=0.1, inplace=False)
              )
            )
          )
        )
      )
      (1): ModuleList(
        (0): Residual(
          (fn): PreNorm(
            (norm): LayerNorm((64,), eps=1e-05, elementwise_affine=True)
            (fn): Attention(
              (to_qkv): Linear(in_features=64, out_features=192, bias=False)
              (to_out): Sequential(
                (0): Linear(in_features=64, out_features=64, bias=True)
                (1): Dropout(p=0.1, inplace=False)
              )
            )
          )
        )
        (1): Residual(
          (fn): PreNorm(
            (norm): LayerNorm((201,), eps=1e-05, elementwise_affine=True)
            (fn): Attention(
              (to_qkv): Linear(in_features=201, out_features=192, bias=False)
              (to_out): Sequential(
                (0): Linear(in_features=64, out_features=201, bias=True)
                (1): Dropout(p=0.1, inplace=False)
              )
            )
          )
        )
        (2): Residual(
          (fn): PreNorm(
            (norm): LayerNorm((64,), eps=1e-05, elementwise_affine=True)
            (fn): FeedForward(
              (net): Sequential(
                (0): Linear(in_features=64, out_features=8, bias=True)
                (1): GELU(approximate=none)
                (2): Dropout(p=0.1, inplace=False)
                (3): Linear(in_features=8, out_features=64, bias=True)
                (4): Dropout(p=0.1, inplace=False)
              )
            )
          )
        )
      )
      (2): ModuleList(
        (0): Residual(
          (fn): PreNorm(
            (norm): LayerNorm((64,), eps=1e-05, elementwise_affine=True)
            (fn): Attention(
              (to_qkv): Linear(in_features=64, out_features=192, bias=False)
              (to_out): Sequential(
                (0): Linear(in_features=64, out_features=64, bias=True)
                (1): Dropout(p=0.1, inplace=False)
              )
            )
          )
        )
        (1): Residual(
          (fn): PreNorm(
            (norm): LayerNorm((201,), eps=1e-05, elementwise_affine=True)
            (fn): Attention(
              (to_qkv): Linear(in_features=201, out_features=192, bias=False)
              (to_out): Sequential(
                (0): Linear(in_features=64, out_features=201, bias=True)
                (1): Dropout(p=0.1, inplace=False)
              )
            )
          )
        )
        (2): Residual(
          (fn): PreNorm(
            (norm): LayerNorm((64,), eps=1e-05, elementwise_affine=True)
            (fn): FeedForward(
              (net): Sequential(
                (0): Linear(in_features=64, out_features=8, bias=True)
                (1): GELU(approximate=none)
                (2): Dropout(p=0.1, inplace=False)
                (3): Linear(in_features=8, out_features=64, bias=True)
                (4): Dropout(p=0.1, inplace=False)
              )
            )
          )
        )
      )
      (3): ModuleList(
        (0): Residual(
          (fn): PreNorm(
            (norm): LayerNorm((64,), eps=1e-05, elementwise_affine=True)
            (fn): Attention(
              (to_qkv): Linear(in_features=64, out_features=192, bias=False)
              (to_out): Sequential(
                (0): Linear(in_features=64, out_features=64, bias=True)
                (1): Dropout(p=0.1, inplace=False)
              )
            )
          )
        )
        (1): Residual(
          (fn): PreNorm(
            (norm): LayerNorm((201,), eps=1e-05, elementwise_affine=True)
            (fn): Attention(
              (to_qkv): Linear(in_features=201, out_features=192, bias=False)
              (to_out): Sequential(
                (0): Linear(in_features=64, out_features=201, bias=True)
                (1): Dropout(p=0.1, inplace=False)
              )
            )
          )
        )
        (2): Residual(
          (fn): PreNorm(
            (norm): LayerNorm((64,), eps=1e-05, elementwise_affine=True)
            (fn): FeedForward(
              (net): Sequential(
                (0): Linear(in_features=64, out_features=8, bias=True)
                (1): GELU(approximate=none)
                (2): Dropout(p=0.1, inplace=False)
                (3): Linear(in_features=8, out_features=64, bias=True)
                (4): Dropout(p=0.1, inplace=False)
              )
            )
          )
        )
      )
      (4): ModuleList(
        (0): Residual(
          (fn): PreNorm(
            (norm): LayerNorm((64,), eps=1e-05, elementwise_affine=True)
            (fn): Attention(
              (to_qkv): Linear(in_features=64, out_features=192, bias=False)
              (to_out): Sequential(
                (0): Linear(in_features=64, out_features=64, bias=True)
                (1): Dropout(p=0.1, inplace=False)
              )
            )
          )
        )
        (1): Residual(
          (fn): PreNorm(
            (norm): LayerNorm((201,), eps=1e-05, elementwise_affine=True)
            (fn): Attention(
              (to_qkv): Linear(in_features=201, out_features=192, bias=False)
              (to_out): Sequential(
                (0): Linear(in_features=64, out_features=201, bias=True)
                (1): Dropout(p=0.1, inplace=False)
              )
            )
          )
        )
        (2): Residual(
          (fn): PreNorm(
            (norm): LayerNorm((64,), eps=1e-05, elementwise_affine=True)
            (fn): FeedForward(
              (net): Sequential(
                (0): Linear(in_features=64, out_features=8, bias=True)
                (1): GELU(approximate=none)
                (2): Dropout(p=0.1, inplace=False)
                (3): Linear(in_features=8, out_features=64, bias=True)
                (4): Dropout(p=0.1, inplace=False)
              )
            )
          )
        )
      )
    )
    (skipcat): ModuleList(
      (0): Conv2d(201, 201, kernel_size=(1, 2), stride=(1, 1))
      (1): Conv2d(201, 201, kernel_size=(1, 2), stride=(1, 1))
      (2): Conv2d(201, 201, kernel_size=(1, 2), stride=(1, 1))
    )
  )
  (to_latent): Identity()
  (mlp_head): Sequential(
    (0): LayerNorm((64,), eps=1e-05, elementwise_affine=True)
    (1): Linear(in_features=64, out_features=16, bias=True)
  )
)
number of params: 0.609664 M
Adjusting learning rate of group 0 to 5.0000e-04.
start training
Adjusting learning rate of group 0 to 5.0000e-04.
Epoch: 001 train_loss: 4.6634 train_acc: 7.4820
OA: 0.1061 | AA: 0.0946 | Kappa: 0.0396
[0.         0.         0.         0.         0.94978479 0.
 0.12962963 0.         0.43439716 0.         0.         0.
 0.         0.         0.         0.        ]
…
